…
        "*   Overall: This design is lightweight and fast to train, providing a solid baseline to compare against more complex or pre-trained architectures in the future"
      ]
    },
    {
      "cell_type": "code",
      "execution_count": 4,
      "id": "d82f1897",
      "metadata": {
        "colab": {
          "base_uri": "https://localhost:8080/"
        },
        "id": "d82f1897",
        "outputId": "e91e286e-13e3-424e-c3ef-642d9eedd3f1"
      },
      "outputs": [
        {
          "name": "stdout",
          "output_type": "stream",
          "text": [
            "BrainTumorCNN(\n",
            "  (features): Sequential(\n",
            "    (0): Conv2d(1, 16, kernel_size=(5, 5), stride=(1, 1))\n",
            "    (1): BatchNorm2d(16, eps=1e-05, momentum=0.1, affine=True, track_running_stats=True)\n",
            "    (2): LeakyReLU(negative_slope=0.01)\n",
            "    (3): MaxPool2d(kernel_size=2, stride=2, padding=0, dilation=1, ceil_mode=False)\n",
            "    (4): Conv2d(16, 32, kernel_size=(5, 5), stride=(1, 1))\n",
            "    (5): BatchNorm2d(32, eps=1e-05, momentum=0.1, affine=True, track_running_stats=True)\n",
            "    (6): LeakyReLU(negative_slope=0.01)\n",
            "    (7): MaxPool2d(kernel_size=2, stride=2, padding=0, dilation=1, ceil_mode=False)\n",
            "    (8): Conv2d(32, 64, kernel_size=(5, 5), stride=(1, 1))\n",
            "    (9): BatchNorm2d(64, eps=1e-05, momentum=0.1, affine=True, track_running_stats=True)\n",
            "    (10): LeakyReLU(negative_slope=0.01)\n",
            "    (11): MaxPool2d(kernel_size=2, stride=2, padding=0, dilation=1, ceil_mode=False)\n",
            "    (12): Conv2d(64, 128, kernel_size=(5, 5), stride=(1, 1))\n",
            "    (13): BatchNorm2d(128, eps=1e-05, momentum=0.1, affine=True, track_running_stats=True)\n",
            "    (14): LeakyReLU(negative_slope=0.01)\n",
            "    (15): MaxPool2d(kernel_size=2, stride=2, padding=0, dilation=1, ceil_mode=False)\n",
            "  )\n",
            "  (classifier): Sequential(\n",
            "    (0): Flatten(start_dim=1, end_dim=-1)\n",
            "    (1): Linear(in_features=2048, out_features=1024, bias=True)\n",
            "    (2): LeakyReLU(negative_slope=0.01)\n",
            "    (3): Dropout(p=0.5, inplace=False)\n",
            "    (4): Linear(in_features=1024, out_features=4, bias=True)\n",
            "  )\n",
            ")\n"
          ]
        }
      ],
      "source": [
        "# Initialize model\n",
        "model_cnn = BrainTumorCNN()\n",
        "print(model_cnn)"
      ]
    },
    {
      "cell_type": "markdown",
      "id": "db38e4bf",
      "metadata": {
        "id": "db38e4bf"
      },
      "source": [
        "## 4. Model Training and Evaluation\n",
…
